hand-gesture-recognition-mediapipe-main/model/point_history_classifier/point_history_classifier.tflite (tflite, 6460 bytes, 6 tensors)

sequential_1/dense_5/BiasAdd/ReadVariableOp f4 [4]
0	0x3e80306b	0.2503694
1	0x3c98fda8	0.01867564
2	0x3f084c37	0.53241295
3	0xbf3fd582	-0.7493516

sequential_1/dense_4/BiasAdd/ReadVariableOp f4 [10]
0	0x3f0a7d76	0.5409769
1	0x3e5726bf	0.21010874
2	0x3f46e97c	0.7770002
3	0x3f32e332	0.6987792
4	0x3e36cf53	0.17852525
5	0x3ea731f7	0.32655308
6	0xbb0c80ce	-0.0021439078
7	0x3ef8e559	0.48612478
8	0x3f416202	0.75540173
9	0x3bc728d5	0.0060778656

sequential_1/dense_3/BiasAdd/ReadVariableOp f4 [24]
0	0xbdfafd5a	-0.12255354
1	0xbd8fa517	-0.0701391
2	0xbd72c069	-0.059265528
3	0xbd6a2e8f	-0.057173308
4	0xbcd71f5c	-0.02626007
5	0xbe065c3d	-0.13121124
6	0xbd2ec072	-0.042664
7	0xbd84cb98	-0.06484145
8	0xbd16bd1c	-0.036801443
9	0xbe4e975f	-0.20174931
10	0x3e95e205	0.29274002
11	0x3ea703d8	0.3262012
12	0xbd9e6dc9	-0.077357836
13	0xbc9956f7	-0.018718226
14	0x3e2e4846	0.17019758
15	0xbc9cb1bf	-0.019127725
16	0xbe093719	-0.13399924
17	0xbdfbb516	-0.12290399
18	0xbd1bc179	-0.038026307
19	0xbd94deed	-0.07269082
20	0xbdb2250c	-0.086984724
21	0xbd248ee4	-0.040175334
22	0xbced9429	-0.029001312
23	0xbcca20c1	-0.024673821

sequential_1/dense_3/MatMul f4 [24, 32]
0	0x3dc7c0f8	0.09753603
1	0xbe43d5bf	-0.19124506
2	0x3e8db4b8	0.2767694
3	0xbf135c6e	-0.5756291
4	0x3fb41d0d	1.4071366
5	0x3de2a808	0.11067206
6	0x3fad5c58	1.3543806
7	0xbf03a023	-0.51416224
8	0x3f2ec1cc	0.6826446
9	0xbeaa8706	-0.3330614
10	0x3eb974cb	0.36221918
11	0x3e27061f	0.16310929
12	0x3f0d4156	0.5517782
13	0xbda87e30	-0.08227193
14	0x3ee45acb	0.4460052
15	0x3eb1fe37	0.34764263
16	0x3ee4d768	0.44695592
17	0x3eba7bee	0.36422676
18	0x3e07e6d7	0.13271652
19	0x3f33583c	0.7005651
20	0xbdb5784c	-0.088608354
21	0x3f4ca9ee	0.7994679
22	0xbeb1e28c	-0.34743154
23	0x3f535912	0.82557786
24	0xbeb2debd	-0.3493556
25	0x3efbadca	0.49156028
26	0xbf5505b4	-0.8321183
27	0x3f2aa7b1	0.66662127
28	0xbf3d1f6d	-0.73876077
29	0x3f00c4ba	0.5030018
30	0xbf8def19	-1.1088592
31	0x3ef9d94d	0.487986
32	0xbe8fb08f	-0.2806439
33	0x3c036320	0.008019239
34	0xbf61fcea	-0.8827654
35	0x3f97a002	1.1845706
36	0xbf6c4328	-0.9228997
37	0x3f97f32e	1.1871088
38	0xbf5ed8dc	-0.8704965
39	0x3f3ae890	0.7301111
40	0xbf2b768d	-0.6697777
41	0x3ede5ec5	0.43431678
42	0xbf023d58	-0.50874853
43	0x3ec4388c	0.38324392
44	0xbf5bcde9	-0.8586107
45	0x3e342cc5	0.17595203
46	0xbf45fb1c	-0.7733629
47	0xbe8af4c4	-0.27139866
48	0xbf3cb21b	-0.7370927
49	0xbe4c75fc	-0.19966882
50	0xbe7b54dc	-0.2454409
51	0xbf335aef	-0.7006063
52	0xbd2df707	-0.04247191
53	0xbf1d0dc6	-0.6134914
54	0x3e776661	0.24160148
55	0xbf35241b	-0.7075822
56	0x3c2c73e7	0.01052568
57	0xbf24dfe7	-0.6440415
58	0x3e52a3e7	0.20570336
59	0xbf45a40a	-0.7720343
60	0x3ebfa594	0.37431014
61	0xbf161923	-0.58632106
62	0x3f194764	0.5987456
63	0xbe8e82eb	-0.27834257
64	0xbe862fc6	-0.26208323
65	0x3e939dc8	0.28831315
66	0xbfaded75	-1.3588091
67	0x3f404083	0.7509844
68	0xbf5cf2d1	-0.8630801
69	0x3f463868	0.7742982
70	0xbf8b6155	-1.0889078
71	0x3f57aa68	0.84244394
72	0xbf7c9d3d	-0.98677427
73	0x3f4df6d5	0.8045476
74	0xbe7094ab	-0.23494212
75	0x3f4007cc	0.750119
76	0xbe759979	-0.23984326
77	0x3f0f6bd9	0.5602394
78	0x3c51348d	0.012768877
79	0x3eb82ff7	0.35974094
80	0x3d53df8a	0.051726855
81	0x3ecb4470	0.3970065
82	0x3f031eaa	0.51218665
83	0x3e033809	0.12814344
84	0x3eddcd1d	0.43320552
85	0x3e956ace	0.29183048
86	0x3f3b1511	0.7307902
87	0x3e42f9f0	0.19040656
88	0x3f23bfe3	0.6396467
89	0xbde027ac	-0.10945067
90	0x3f8edfa2	1.1161997
91	0x3e3d4a48	0.18485367
92	0x3fbbe89f	1.4680365
93	0x3e581395	0.2110122
94	0x3fccc54c	1.599771
95	0x3e7bb2b0	0.24579883
96	0x3d623740	0.05522847
97	0x3d904358	0.07044095
98	0x3f8764ef	1.0577677
99	0xbf2075f4	-0.6267998
100	0x3fdc896f	1.7229441
101	0x3e179914	0.14804488
102	0x3f96e58d	1.1788803
103	0x3e7165dd	0.23574014
104	0x3f6ac451	0.91705805
105	0x3e48030c	0.19532412
106	0x3f1e4099	0.6181732
107	0x3ebbe8f2	0.3670116
108	0x3dc87bd7	0.097892456
109	0x3ea51005	0.32238784
110	0x3db268dd	0.08711407
111	0x3f0c2e92	0.5475856
112	0xbe47a7cb	-0.19497602
113	0x3f02c5f2	0.5108329
114	0xbea7a4b7	-0.32742855
115	0x3f1e14bc	0.6175039
116	0xbed8b8e2	-0.42328554
117	0x3eeff8b6	0.4686944
118	0xbef01e09	-0.46897915
119	0x3ef8ffa7	0.48632547
120	0xbf38f799	-0.72252804
121	0x3d86404c	0.065552324
122	0xbf27e1e6	-0.6557907
123	0xbe8e2dbb	-0.27769265
124	0xbefcac91	-0.49350408
125	0xbe65c8bb	-0.22439854
126	0xbe56bbfa	-0.20970145
127	0xbf2bb4cb	-0.67072743
128	0x3dba6fd0	0.09103358
129	0x3e00abe2	0.12565568
130	0x3eeb06e6	0.459037
131	0x3f84b763	1.0368465
132	0x3f9a1118	1.2036467
133	0x3fc232c5	1.5171744
134	0x3f801c9e	1.0008733
135	0x3f931cf1	1.1493207
136	0x3e93fcd4	0.2890383
137	0x3f84d55b	1.0377611
138	0x3e35b7e6	0.17745933
139	0x3f3d9905	0.74061614
140	0xbd66d89c	-0.05635892
141	0x3f02ca18	0.5108962
142	0x3dbad44a	0.09122522
143	0x3eddb82d	0.43304577
144	0xbed7adfe	-0.42124933
145	0x3e2cd6f8	0.16878879
146	0xbf2f876e	-0.68566024
147	0x3e8d17f1	0.27557328
148	0xbe809b9c	-0.2511872
149	0x3e18ba41	0.149148
150	0xbf1400b4	-0.5781357
151	0xbc6fc09e	-0.014633326
152	0xbf8ce0bd	-1.1006085
153	0xbdce3535	-0.10068742
154	0xbf834150	-1.0254307
155	0xbf1c4637	-0.6104464
156	0xbea89ccf	-0.32932135
157	0xbf271f2d	-0.65281945
158	0xbf7324a4	-0.94977784
159	0xbf291dfc	-0.6606138
160	0x3d0f5190	0.034989893
161	0x3d322ac8	0.04349783
162	0xbeb84b45	-0.35994926
163	0xbfe698cb	-1.8015379
164	0xbe1bc4b7	-0.1521176
165	0xbfd0c385	-1.6309668
166	0x3aa28146	0.0012398146
167	0xbf730597	-0.94930404
168	0x3e8cc676	0.27495164
169	0xbf385795	-0.7200864
170	0x3dbc0635	0.091808714
171	0xbf329afe	-0.6976775
172	0x3e8f3f78	0.2797811
173	0xbec439c6	-0.38325328
174	0x3f24b9eb	0.6434619
175	0xbdd29bcc	-0.10283622
176	0x3f82478e	1.0178087
177	0x3d218294	0.03943117
178	0x3f8a4247	1.0801476
179	0x3dd24b75	0.102682985
180	0x3f5e54ea	0.8684832
181	0x3e43b703	0.19112782
182	0x3f4dc67c	0.8038099
183	0x3e8dd01a	0.2769783
184	0x3f37913d	0.7170599
185	0x3f077e6f	0.529273
186	0x3dc73212	0.09726347
187	0x3f256e09	0.64621025
188	0xbb3359af	-0.0027366688
189	0x3f26a426	0.6509422
190	0xbd58ea0a	-0.052957572
191	0x3f15241a	0.5825821
192	0xbdd5cfc2	-0.10440017
193	0xbdc3d98e	-0.0956298
194	0x3e4fe2dc	0.20301384
195	0xbf9ee6bd	-1.2414166
196	0xbe6bb803	-0.23019414
197	0xbf8d76b7	-1.1051854
198	0xbeb0ccef	-0.34531352
199	0xbf647105	-0.89234954
200	0xbf2506c6	-0.6446346
201	0xbef48c5d	-0.4776334
202	0xbf778108	-0.9668126
203	0xbd434ee4	-0.047682658
204	0xbf2729bf	-0.65298074
205	0x3e5e0fc9	0.21685709
206	0xbf22c4e3	-0.63581675
207	0x3eda7722	0.42669016
208	0xbec0d7ab	-0.37664542
209	0x3f167945	0.5877879
210	0x3e802ff6	0.2503659
211	0x3f232942	0.6373483
212	0x3ec23713	0.37932643
213	0x3eddcf48	0.43322206
214	0x3e9f6baa	0.3113683
215	0x3eb3911d	0.3507165
216	0x3e98da8c	0.29854238
217	0x3e345111	0.1760905
218	0x3f03e615	0.5152295
219	0xbe5d6183	-0.21619229
220	0x3d50fbba	0.051021315
221	0xbef034da	-0.46915323
222	0x3e1ce59f	0.15321968
223	0xbf0b55c8	-0.54427767
224	0xbe16013f	-0.14648913
225	0x3e827940	0.2548313
226	0x3fd38690	1.652544
227	0x3d9091a4	0.07059029
228	0x3faa8724	1.3322492
229	0xbf131eea	-0.57469046
230	0x3f7e5a4e	0.99356544
231	0xbf3b5e9b	-0.7319123
232	0x3fb5381e	1.4157751
233	0xbf47fc19	-0.78119045
234	0x3f6b4b5e	0.91911876
235	0xbf23c91f	-0.6397876
236	0x3de1e022	0.11029078
237	0xbf344145	-0.70412093
238	0xbe7152a4	-0.23566681
239	0xbe9c31db	-0.30506787
240	0xbe3b4236	-0.18286976
241	0xbe7811ca	-0.24225536
242	0xbf14f335	-0.58183604
243	0xbea698f5	-0.32538572
244	0xbeda9620	-0.4269266
245	0xbe683adf	-0.22678708
246	0xbf37a433	-0.71734923
247	0xbe9c9e46	-0.30589503
248	0xbf6ae79d	-0.91759664
249	0x383210fc	4.2454325e-05
250	0xbf729c84	-0.94770074
251	0xbe3e7454	-0.18599063
252	0xbf79c098	-0.975595
253	0xbd9aa5da	-0.07551165
254	0xbf477491	-0.7791224
255	0xbe99745d	-0.2997159

sequential_1/dense_4/MatMul f4 [10, 24]
0	0xbf44e239	-0.7690769
1	0xbf0f97b4	-0.56090856
2	0x3eb7a6ac	0.35869348
3	0xbf8008ec	-1.0002723
4	0xbf98f926	-1.1951034
5	0xbce1fb0c	-0.027585529
6	0xbfebbece	-1.8417604
7	0xbfd07b89	-1.62877
8	0xbfdeaf06	-1.7397163
9	0xbd3e0316	-0.04638966
10	0x3dd876f0	0.105695605
11	0x3e54a825	0.20767267
12	0xbec0dd49	-0.37668827
13	0xbf8f7d57	-1.1210126
14	0xbe2517d0	-0.16122365
15	0x3f3763d8	0.71636724
16	0xbdad7d84	-0.08471206
17	0xbfa6f2b0	-1.3042812
18	0xbfb2b999	-1.396289
19	0xbee42707	-0.44561026
20	0xbf144b27	-0.57927173
21	0xbfb21389	-1.3912212
22	0xbf426539	-0.75935704
23	0xbfa98c63	-1.3245968
24	0x3f36a5e8	0.713469
25	0x3f4bb6ef	0.7957601
26	0x3eccfd4e	0.40037006
27	0x3f437371	0.76348025
28	0x3ed43355	0.41445413
29	0x3f058c43	0.5216715
30	0x3ea5a524	0.32352555
31	0x3da9914e	0.08279668
32	0x3f6cdbca	0.9252287
33	0xbf2b91e2	-0.67019475
34	0x3ec69257	0.38783523
35	0x3edfc5b6	0.4370553
36	0x3f6e5186	0.93093145
37	0x3f39a3f0	0.72515774
38	0x3e1965f4	0.14980298
39	0x3ebe46eb	0.3716348
40	0x3f8ba80b	1.0910658
41	0xbda60783	-0.081069015
42	0x3f09b94f	0.53798383
43	0x3ef7b3fa	0.483795
44	0x3df93712	0.12168707
45	0x3e953d2b	0.2914823
46	0x3ec49de3	0.38401708
47	0x3f470f8d	0.77758104
48	0x3e831b71	0.25606874
49	0x3e8ecf2b	0.27892432
50	0xbedbc4d1	-0.42923597
51	0x3ed42a2b	0.41438422
52	0x3ea68db4	0.32529986
53	0x3ecaa958	0.39582324
54	0xbf7f418f	-0.9970941
55	0xbf349a6d	-0.70548135
56	0xbf35bff5	-0.7099603
57	0xbf53cf5e	-0.8273829
58	0x3f0cb113	0.54957694
59	0x3eeafcb0	0.4589591
60	0x3ed9e0a7	0.4255421
61	0xbf94f43d	-1.1637036
62	0x3ef7eaca	0.48421317
63	0xbf19d481	-0.6008988
64	0x3f31247f	0.69196314
65	0xbfcdf03e	-1.6088941
66	0xbe9e985a	-0.3097561
67	0xbeedc0cb	-0.46436152
68	0xbfb0c018	-1.3808622
69	0xbef9d7cd	-0.48797455
70	0xbeb132f1	-0.34609178
71	0xbf2402a7	-0.6406655
72	0xbe1b2ce8	-0.15153849
73	0xbeccae3e	-0.39976686
74	0x3e705d0c	0.23472995
75	0xbea9c513	-0.33158168
76	0xbe9f8359	-0.31154898
77	0xbec4dc67	-0.38449404
78	0x3ed2d687	0.41179296
79	0xbeb285d1	-0.3486772
80	0x3e876812	0.26446587
81	0xbedd7d81	-0.43259814
82	0x3e7beb0c	0.24601382
83	0x3eb138f6	0.3461377
84	0xbee11c49	-0.43966892
85	0xbdf897f3	-0.12138357
86	0x3d9e110b	0.077180944
87	0xc031a9a3	-2.7759788
88	0xbee6845f	-0.45022866
89	0x3f67f1ab	0.9060313
90	0x3dacdc0a	0.084404066
91	0xbc562ca1	-0.013072164
92	0x3f3478b8	0.704967
93	0x3f23ff02	0.64060986
94	0xbe40155c	-0.18758148
95	0xbf14599e	-0.57949245
96	0x3d1f6ad3	0.038920235
97	0xbe8d23e4	-0.27566445
98	0xbea14b27	-0.3150265
99	0xbd0674cd	-0.032826234
100	0xbd952232	-0.07281913
101	0xbe61bbe6	-0.22044334
102	0xbf8c4705	-1.0959173
103	0x3dd8cffc	0.10586545
104	0xbd656ffa	-0.056014992
105	0x3fa3b26e	1.2788827
106	0x3eed7422	0.46377665
107	0x3ea1fd39	0.31638506
108	0xbf40cb7b	-0.75310487
109	0xbf89c487	-1.07631
110	0x3e91da86	0.28487033
111	0xbfe90d27	-1.8207139
112	0xbeefaca5	-0.46811405
113	0x3d7e56d6	0.062094532
114	0xbde29d97	-0.11065214
115	0x3f2d7371	0.67754275
116	0xbf14511f	-0.5793628
117	0xbf6ceb7f	-0.9254684
118	0xbfb92f5e	-1.446758
119	0x3eab1668	0.33415532
120	0x3e86c86e	0.2632479
121	0xbf0b2974	-0.5436013
122	0x3f59d224	0.85086274
123	0xbeb1a61e	-0.3469705
124	0x3eed8c11	0.46395925
125	0x3d8aab6e	0.06770979
126	0x3ebf46ed	0.373588
127	0x3f55deac	0.83542895
128	0x3f42761b	0.75961465
129	0x3d1f80c1	0.03894115
130	0x3f45dc23	0.77289027
131	0x3ee15d04	0.44016278
132	0xbf08035e	-0.5313014
133	0x3f8bf6ef	1.0934733
134	0x3f00c057	0.5029349
135	0x3f90a615	1.1300684
136	0x3a2cbf1a	0.00065897556
137	0x3f0912d9	0.53544384
138	0x3f3ef642	0.7459451
139	0x3f43e21e	0.765169
140	0x3f98fe76	1.1952655
141	0x3f4c1d39	0.7973209
142	0x3f2afbb6	0.6679033
143	0x3f490d08	0.7853551
144	0x3f383ff0	0.7197256
145	0x3f6fdf0c	0.9369972
146	0x3f0384f6	0.5137476
147	0x3f18058f	0.5938348
148	0x3f3a3890	0.7274256
149	0x3f52d6fd	0.82359296
150	0xbc4c7370	-0.012478694
151	0x3efaac73	0.48959693
152	0x3dd1e94f	0.10249578
153	0x3f9a13aa	1.2037251
154	0x3ca7055f	0.020388303
155	0xbc346980	-0.011011481
156	0x3f8a2bb4	1.0794587
157	0x3d916e6a	0.07101138
158	0x3e1f7458	0.15571725
159	0x3f35b83a	0.7098423
160	0x3f6ab030	0.9167509
161	0x3f2c3303	0.6726534
162	0x3f106f74	0.56420064
163	0x3f4dc514	0.8037884
164	0x3e8308ee	0.2559275
165	0x3f20b0aa	0.6276957
166	0x3f349fe2	0.7055646
167	0x3f24c1ef	0.6435842
168	0x3f146383	0.5796434
169	0xbf49189e	-0.7855319
170	0x3e6e76d0	0.23287511
171	0xbf45a6ae	-0.7720746
172	0xbfb760b5	-1.4326388
173	0x3ee71920	0.45136356
174	0xbee78b76	-0.45223588
175	0xbf1bdcbe	-0.608837
176	0xbf480e5b	-0.78146905
177	0x3f7c1841	0.9847451
178	0xbe5b127c	-0.2139377
179	0x3d7bf27a	0.06151054
180	0x3f1c83e6	0.6113876
181	0xbeb969c6	-0.3621351
182	0xbfa10337	-1.2579106
183	0xbde74b7c	-0.112936944
184	0x3f8fe5fe	1.1242063
185	0xbf12df86	-0.5737232
186	0xbed9f944	-0.42572987
187	0x3e33fe6b	0.17577522
188	0xbc8a4383	-0.016877895
189	0xbe62b3e9	-0.22138943
190	0x3ed58faf	0.41711184
191	0xbeeec2a9	-0.4663289
192	0x3edb2dd4	0.42808402
193	0xbdb0d448	-0.086342394
194	0xbe9fe399	-0.3122833
195	0x3efe630f	0.4968495
196	0x3eaf5530	0.3424468
197	0x3f1e887f	0.61927027
198	0xbfb85727	-1.4401597
199	0xbe85c92d	-0.26130047
200	0xbedb4389	-0.42824963
201	0xbe40a4fd	-0.18812938
202	0x3ecd3c34	0.40084994
203	0x3e59af0f	0.21258186
204	0x3d89f914	0.06736961
205	0xbf99b585	-1.200852
206	0x3f0b2aeb	0.5436236
207	0xbf2dcc43	-0.67889804
208	0xbd80bb17	-0.062856846
209	0xbf1d1a93	-0.61368674
210	0xbe53ac5f	-0.20671223
211	0xbf57d648	-0.8431134
212	0xbf847fa4	-1.0351453
213	0xbeb97b3f	-0.36226842
214	0xbf429ddc	-0.76022124
215	0xbe0e559f	-0.1389985
216	0x3f8fe535	1.1241823
217	0x3ff56ba0	1.917347
218	0x3fe3848a	1.7774823
219	0x3ff8636f	1.9405345
220	0x3fb9a021	1.4501992
221	0x3fbfb803	1.4978031
222	0x3fc3b73f	1.5290297
223	0x3fdcc5f6	1.7247913
224	0x3fe44ace	1.7835329
225	0x3f8aabd1	1.0833684
226	0x3de6abc4	0.112632304
227	0x3e01bcea	0.12669721
228	0x3fc03f1c	1.501926
229	0x3fc9472e	1.5724847
230	0x3ea225bf	0.31669423
231	0x3f87e532	1.061682
232	0x3f8e97f6	1.1140125
233	0x3fb36d60	1.4017754
234	0x3fd67f45	1.675759
235	0x3fb68947	1.4260644
236	0x3ffbc64f	1.9669894
237	0x3fd7157a	1.6803429
238	0x3fb76a18	1.4329252
239	0x40003b7d	2.0036309

sequential_1/dense_5/MatMul f4 [4, 10]
0	0x3feef58a	1.8668683
1	0xc0110b27	-2.2663057
2	0x3face179	1.3506309
3	0x3f3d58f2	0.73963845
4	0x3fb22ea4	1.3920484
5	0xc003b4b8	-2.0579052
6	0xc05e003d	-3.4687645
7	0xbf988f36	-1.1918705
8	0x3fb830b6	1.4389865
9	0xc07fb230	-3.9952507
10	0xbfd26d1d	-1.6439549
11	0x3f48e29e	0.7847079
12	0x3f6d6cfb	0.92744416
13	0xbfe5163e	-1.7897413
14	0xbf9f3e06	-1.2440803
15	0xbf3ca348	-0.7368665
16	0x3e5ad7eb	0.21371429
17	0x3f78d15b	0.9719445
18	0x3f1ffe3f	0.62497324
19	0x3f3cd18a	0.7375723
20	0xbf053359	-0.52031475
21	0x3efea313	0.4973379
22	0xbfc68da4	-1.5511975
23	0x3ee0fb6e	0.43941826
24	0xbea9b8e9	-0.33148888
25	0x3f6ba457	0.9204764
26	0xbea67eb8	-0.32518554
27	0xbf9e4438	-1.2364569
28	0xbfc1f73f	-1.5153579
29	0x3f54292e	0.82875335
30	0xbda6cd51	-0.0814463
31	0x3bdf0cad	0.006806931
32	0xbf9af7af	-1.2106837
33	0xbe42bf80	-0.19018364
34	0x3f82eda1	1.0228769
35	0xbd9e9633	-0.07743492
36	0x3f77fa62	0.9686643
37	0x3f948e3c	1.1605906
38	0x3db61a93	0.088917874
39	0x3f8a0fe1	1.0786096
