hand-gesture-recognition-mediapipe-main/model/keypoint_classifier/keypoint_classifier.tflite (tflite, 6676 bytes, 6 tensors)

sequential/dense/BiasAdd/ReadVariableOp f4 [20]
000000 0d 43 fb 3d b7 14 02 be 35 0f f1 3d 90 0f 15 be
       0.12268648 -0.12703215 0.11770479 -0.14556718
000010 6a 36 70 be c2 3c b8 be dc 58 d1 bd 0f 36 e6 3d
       -0.23458257 -0.35983855 -0.10222027 0.112407796
000020 13 9f b4 be 0c d7 8c 3e 17 61 3d bd ae 76 34 bc
       -0.35277614 0.27507818 -0.04623517 -0.011014624
000030 fa 40 00 be 88 ce 59 bd d1 d0 a2 3d 3d ed f2 3c
       -0.12524787 -0.05317548 0.07949985 0.02965414
000040 1e 04 41 3c 5e da 00 bf 54 61 39 3e b3 40 11 3e
       0.011780767 -0.503332 0.18103534 0.14184837

sequential/dense_2/BiasAdd/ReadVariableOp f4 [7]
000000 9a 43 db be 1e a3 28 3f 6c 58 06 bf 0c 7d 89 3d
       -0.42825013 0.658739 -0.5247867 0.06713304
000010 de 76 b9 be e5 56 a3 3e 9c 89 22 bd
       -0.362235 0.31902233 -0.039682016

sequential/dense_1/BiasAdd/ReadVariableOp f4 [10]
000000 25 db 1c 3f af b1 55 3f 0a 41 8b 3e 75 7b 3d 3f
       0.6127189 0.8347425 0.27198058 0.74016505
000010 9a 4f 18 3d 00 c0 bb bd d2 2f ae be 77 fc bd 3e
       0.03718529 -0.091674805 -0.3402086 0.37106678
000020 a3 c4 10 be 0e 74 d9 3e
       -0.14137511 0.42471355

sequential/dense/MatMul f4 [20, 42]
000000 60 0a c9 3d 50 32 2c 3e 47 48 67 bf f8 02 0a 3e
       0.09816432 0.16816068 -0.9034466 0.13477695
000010 93 6d 0e bf 1d 22 95 3d c9 47 3b bf 22 14 7e bd
       -0.55635947 0.07281897 -0.7315641 -0.06203092
000020 50 a5 59 bf 72 ed 3a be d2 a2 0f bf 75 66 e8 3d
       -0.8501787 -0.1825464 -0.5610782 0.11347667
000030 af a3 0b bf 52 85 f1 3c f4 0b 40 be c5 85 9b bd
       -0.54546636 0.029482517 -0.1875456 -0.07593874
000040 07 57 98 be ed 6f a3 bc 09 e5 c1 be b7 8d 1e 3e
       -0.29753897 -0.019950831 -0.37870052 0.15483747
000050 b8 7c 1e be 12 4e 55 3d 95 a5 fd be d2 6e 93 bc
       -0.15477264 0.052076407 -0.49540392 -0.01799718
000060 97 36 ab be 36 6b a1 3c 1f 33 08 3d 5b 63 47 3e
       -0.33440086 0.019704442 0.033251878 0.19471495
000070 e7 ad 8e be 0d c8 4b 3d e2 b1 fe bd 62 11 1f 3d
       -0.27867052 0.04975133 -0.12436272 0.038834937
000080 c9 b3 10 bf 83 5d af 3d cc 9d 79 bd fb 60 26 3d
       -0.5652433 0.08562758 -0.060941502 0.04061983
000090 a4 54 63 3d 00 5b e4 bd 56 10 d9 bd bc 1b b9 3d
       0.05550064 -0.111501694 -0.10598819 0.09038493
0000a0 fe 97 36 bd f0 bc 8c bc b8 62 70 3d da 8c 03 3e
       -0.044578545 -0.017179936 0.058687896 0.128467
0000b0 a6 ff 95 be ee 63 0c 3f 2d 89 ed 3d 21 e6 b7 3e
       -0.29296607 0.5483998 0.1159843 0.35917762
0000c0 0d 98 07 3e 69 d2 9e 3e 9e cb 0e 3e 89 54 5a 3e
       0.13241597 0.31019905 0.13944861 0.2132131
0000d0 4d 42 0f 3e 6e 25 9e 3e eb d3 39 3e 48 be 18 3d
       0.13990135 0.30887932 0.18147247 0.03729084
0000e0 19 89 b1 bd 9e cf 2e be fe a4 e8 be f2 22 0b bf
       -0.086687274 -0.17071387 -0.4543838 -0.543502
0000f0 32 77 5f 3e ae e1 9a 3e e8 fd ec 3d d2 ba af 3d
       0.21822813 0.30250305 0.11571866 0.08580555
000100 06 b6 93 be 0c a6 78 be 99 76 e9 be e2 d3 2e bf
       -0.2884981 -0.24282092 -0.45598295 -0.6829206
000110 f6 68 ba 3e 04 c0 24 3e 51 7d e7 3d 5e f7 33 3e
       0.36408204 0.16088873 0.11303199 0.17574832
000120 62 76 6a be 42 b0 66 bd 44 5b a0 be 43 b6 f5 be
       -0.22896722 -0.056320436 -0.3131963 -0.47990617
000130 9e b9 a2 3e a5 7b 35 3e 3e 32 2e 3e 46 95 37 3e
       0.3178224 0.17722948 0.17011353 0.17928037
000140 f4 87 77 3d eb 41 1c be 38 bf 8c be 67 37 2e bf
       0.06043239 -0.1525952 -0.27489638 -0.6805329
000150 f0 ff cc 3d 42 24 05 3e 81 c0 15 be ad 2e 5e bc
       0.10009754 0.13002113 -0.14624216 -0.013560933
000160 f5 3d 0a bf 69 0b 37 3e 36 21 0e bf ce 3b 9a 3e
       -0.5400079 0.17875446 -0.55519426 0.30123752
000170 eb bf 3b bf 1e c1 1f 3f a9 7b 28 be 20 70 80 be
       -0.7333972 0.6240405 -0.16453423 -0.25085545
000180 b5 3d 10 be 1c 42 db 3d 67 40 42 be 24 3c 79 3e
       -0.1408604 0.10705969 -0.1896988 0.24339348
000190 8f 24 58 3d 1c ac 8d 3e e1 cc 63 be 90 41 d3 bd
       0.05276924 0.27670372 -0.22246124 -0.103152394
0001a0 6d 94 5b 3d 08 b7 1d 3c e7 f9 4d 3d 01 1a 17 3e
       0.053608347 0.009626158 0.050287154 0.14756013
0001b0 87 ef c7 3d a2 a8 9a 3e a3 6b be bd 1a ff 7f 3d
       0.09762483 0.30206782 -0.09297874 0.062499143
0001c0 67 a7 1d bb 33 87 2f 3d ab d6 4d bd f2 63 aa 3d
       -0.0024056078 0.042853545 -0.05025355 0.08319844
0001d0 14 1d 12 bc 15 19 9e 3e 83 73 e7 bd fb a4 67 3e
       -0.008918066 0.3087851 -0.11301329 0.22621529
0001e0 09 2f 67 3c cd 88 3b 3e 70 d3 fa 3c 86 86 4e 3e
       0.014110335 0.18313904 0.0306184 0.20168504
0001f0 16 51 50 be 6f 65 a8 3e 08 83 f7 3d 4c 83 c7 3d
       -0.20343432 0.32889888 0.12085539 0.0974184
000200 be 71 2e bd cc b9 40 3f 80 53 ef bd 7d af c2 3e
       -0.04258894 0.75283504 -0.11685848 0.38024512
000210 63 f2 89 3b 52 71 81 3e 01 3d f3 3d 83 f6 5c 3e
       0.004209803 0.2528177 0.1187687 0.21578412
000220 03 22 87 3e 9e cd 0b 3e 9b 3f 55 3d 03 52 b7 3d
       0.26393136 0.13652655 0.052062612 0.08951189
000230 dc 16 ac bd df 08 34 bd 50 4e 2b be f0 e5 3d bd
       -0.084027976 -0.043953773 -0.16729093 -0.046361864
000240 e4 25 05 3f a3 13 47 3e f8 5e 81 3d 5d b8 21 3e
       0.5201094 0.19441085 0.06316942 0.15792985
000250 20 5e 3c be 0e 80 90 3d 36 58 1b bf c8 bb 2a bd
       -0.18395281 0.070556745 -0.60681474 -0.04168299
000260 23 fa c5 3e c9 6d c3 3d 83 f8 49 bd 26 04 5a 3d
       0.38667402 0.09542424 -0.049309265 0.053226613
000270 5c 87 e4 be 27 c1 37 be 46 68 ad be 3c 3c e4 be
       -0.4463452 -0.17944776 -0.33868617 -0.44577205
000280 81 0c d1 3e cb 65 66 3e b5 3b 3e 3e e7 c3 c5 3d
       0.40829852 0.22499768 0.18577464 0.09656506
000290 d6 0b 16 3e 67 f8 24 bf a7 d2 27 bd 4e 33 89 bf
       0.14652953 -0.6444153 -0.040972378 -1.0718782
0002a0 60 7c 83 3c 38 7f bd bd 3f 6f d0 be 48 b1 7e 3f
       0.016050518 -0.09252781 -0.40709874 0.9948926
0002b0 b6 7d 4a be ea df 23 3f 16 55 14 bf 98 78 09 3f
       -0.19774517 0.6401354 -0.5794233 0.53699636
0002c0 90 35 e9 be d7 b0 e6 3e 0e 46 8b bd 16 ab 3a 3e
       -0.45548677 0.45056793 -0.06800471 0.18229327
0002d0 f5 b5 79 bd a8 0d e5 3d 7f 98 ab bc cf 3a 4f 3e
       -0.060964543 0.11184245 -0.02094674 0.20237277
0002e0 55 27 e2 bd d5 22 08 3e 05 59 de bd 1a 01 0a bd
       -0.11042658 0.13294537 -0.10856823 -0.033692457
0002f0 e7 43 1e 3b 78 21 ab 3d d8 3e 5c 3b 98 06 08 3e
       0.002414936 0.08355993 0.0033606794 0.13283765
000300 61 88 43 be 28 1b f7 3d 35 d5 80 3e 4d 7a fd bd
       -0.19094993 0.120657265 0.25162664 -0.12376843
000310 b0 75 46 3d cb 13 5b be 85 b8 5f be f1 e6 3a be
       0.04845208 -0.21394269 -0.21847732 -0.1825216
000320 1a 5f ff be 1d dd 0e bf 85 73 bf 3e 0b c5 e2 bb
       -0.49877244 -0.5580614 0.37392822 -0.006920462
000330 ff 78 8e 3d b4 20 d7 be a3 a0 7b bd 21 91 01 bf
       0.06956672 -0.42017138 -0.061432492 -0.50612074
000340 58 ec 08 bc 42 90 12 bf e0 64 66 3e d0 48 ae 3c
       -0.00835713 -0.5725137 0.22499418 0.021274954
000350 7d eb dc bb b0 d2 14 3f c4 e3 08 be 15 55 1e 3f
       -0.0067419396 0.58133984 -0.13368136 0.61848575
000360 97 63 23 be 27 cd 55 3f 82 27 25 be 0b e1 7c 3f
       -0.1595596 0.8351616 -0.16128352 0.9878089
000370 15 42 9c 3e 98 28 fc 3d 3c e5 33 3e 78 ab 94 bd
       0.30519167 0.1231243 0.17567915 -0.072592676
000380 e9 92 07 3e 93 8f 18 be 8c b7 5c be 56 58 90 be
       0.13239636 -0.14898519 -0.21554393 -0.28192395
000390 4c 5b 5e 3e 34 cc c1 bd fe e1 9b 3d a6 c2 0e bd
       0.21714514 -0.09462777 0.07611464 -0.0348536
0003a0 dd 1a 3f bd 3d d4 a9 be 59 f5 c7 be 57 cc 61 be
       -0.04665648 -0.33169737 -0.39054373 -0.22050606
0003b0 20 7f 34 3e f1 1c 07 3e fe 5a d5 3d 6e 17 8c bd
       0.1762662 0.13194634 0.10417746 -0.06840406
0003c0 6e f6 41 be 43 6d 79 bd 34 6d 0f bf 2f db 83 bd
       -0.18941662 -0.060895216 -0.56026006 -0.0643829
0003d0 37 41 af be d5 f0 6a 3e dc ea ac be 76 c4 82 3d
       -0.34229442 0.22943433 -0.33772933 0.06385128
0003e0 c4 5d 1f bf 2b af 01 3e 72 66 27 bf e5 28 86 3d
       -0.6225245 0.12664478 -0.65390694 0.06550769
0003f0 90 c3 ea bc 6a 67 19 3e f2 5e 78 3e e9 97 3f 3e
       -0.028657705 0.14980856 0.24254969 0.18710293

sequential/dense_1/MatMul f4 [10, 20]
000000 b4 ff a8 3e ca 61 ae 3e 6a 39 dd be 2f 73 38 3f
       0.33007586 0.34058982 -0.43207866 0.72050756
000010 20 23 44 3f 97 a5 a0 be 12 52 bf 3e 0b 23 db 3e
       0.76616096 -0.31376335 0.37367302 0.42800173
000020 ff 7b 47 be 03 e4 b4 3e 35 5d 73 3c 11 3c b7 3e
       -0.19480895 0.3533021 0.014853765 0.35788015
000030 69 15 50 be 59 ba 4e 3f a9 8b 40 3f 58 9e 0a bf
       -0.20320667 0.80753094 0.75213104 -0.54147863
000040 77 12 ad be 64 f0 a3 3e b2 f0 a1 3d eb 88 74 bd
       -0.3380315 0.3201934 0.07907237 -0.059700888
000050 2d 75 f5 3e 88 31 57 3e 34 ae f9 be aa 06 ad 3d
       0.4794096 0.21014988 -0.4876572 0.08448537
000060 3a 8f b4 bd 21 c5 98 3e 67 5a aa 3e 07 93 60 be
       -0.08816381 0.29837897 0.33272097 -0.21931086
000070 00 db 63 bf e4 72 5c 3e 1d 0a 25 3f f8 f8 94 bd
       -0.8900604 0.21528202 0.64468557 -0.072740495
000080 2a 7d 6b 3e 8a d7 91 be 0c 2c 54 3e 1c 05 fb be
       0.22996965 -0.28484756 0.20719928 -0.49027336
000090 97 49 e9 3c d9 95 5a 3c d8 a4 7e bd 3d c4 02 3f
       0.028477473 0.0133413905 -0.062168926 0.51080686
0000a0 aa f5 44 3e 2d d6 ea 3d 79 bc 20 3f bb 79 34 3e
       0.19234338 0.11466632 0.62787586 0.17624561
0000b0 b7 c6 3c 3e 52 67 16 bf aa a6 78 3e 68 86 42 3f
       0.18435179 -0.58751404 0.24282327 0.7598634
0000c0 66 9c b1 3d f0 4c 00 3d ad 64 33 bf 59 53 c0 3e
       0.08672409 0.031323373 -0.70075494 0.3756359
0000d0 41 86 11 be 2d 3d 13 3e f7 11 c8 bc e1 78 22 3e
       -0.1421137 0.14378805 -0.024422629 0.15866424
0000e0 c7 20 ae 3c 4f d3 9e be b6 03 38 3f 28 e5 21 3f
       0.021255864 -0.3102059 0.7188066 0.6324029
0000f0 e2 1f 11 3d c2 20 35 3e 4d 75 86 3d 33 1f c8 be
       0.035430796 0.17688277 0.06565342 -0.39086303
000100 bd e6 19 be 50 18 06 3e 3d d9 92 be eb a5 71 bf
       -0.15029426 0.13095212 -0.28681365 -0.94393796
000110 4f 67 45 3f 35 4f e8 3d cb 00 70 3f 25 c1 4a bc
       0.7711076 0.113432325 0.9375121 -0.012375151
000120 91 4c 21 3f 1b a4 8c be 7e b9 49 3f b1 e4 60 be
       0.63007456 -0.27468953 0.78798664 -0.21962239
000130 c7 f2 3d 3f 82 70 22 3f 3c 48 3f 3e f3 9f a0 be
       0.74198574 0.63452923 0.18679899 -0.31372032
000140 51 77 9b 3e 56 92 8d 3f 00 6b 8a 3e 39 4b 6b 3f
       0.3036447 1.1060283 0.2703476 0.91911656
000150 39 b4 01 3f 95 c4 58 3f 19 b6 53 3e bc 75 fb 3c
       0.5066562 0.8467496 0.20674933 0.030695789
000160 7d 48 9d be 52 23 3a 3d fb e5 27 bc 8e d9 32 3b
       -0.30719367 0.04544384 -0.010247703 0.0027290317
000170 93 8f 4c 3f 65 f6 1d 3f 8d f0 c5 3e d7 1c 3a bd
       0.79906577 0.61704093 0.38660088 -0.04543766
000180 b0 f3 3b bf 88 8c b0 3e 5f 49 26 bf 56 31 5b be
       -0.7341871 0.34482217 -0.64955705 -0.21405539
000190 04 8d 0a ba 3c c1 8b 3d e7 13 b5 3e 35 08 58 3e
       -0.0005285295 0.06823966 0.35366747 0.2109688
0001a0 15 06 28 3e 42 c5 91 bf 3b fa 12 bd 5a e2 6c bd
       0.1640857 -1.1388323 -0.03588317 -0.057833053
0001b0 01 cc c4 be cc e1 ef be e9 f8 21 3e 78 a9 32 bf
       -0.38436893 -0.46851957 0.15817608 -0.6978984
0001c0 8b 5d fe 3e 32 b2 63 3e 2d a5 4a be dc 6e d5 3e
       0.49680743 0.22235945 -0.19789572 0.41686141
0001d0 0c 30 e1 be c6 80 ba 3d 34 b5 56 be d9 77 10 bf
       -0.4398197 0.09106593 -0.20967561 -0.56432873
0001e0 c2 51 12 3f 4f 07 5b be 6f 72 55 3f 0b e7 93 3d
       0.57156 -0.21389507 0.83377737 0.07221802
0001f0 6c 9b 20 3f 5f f1 09 3f e4 d1 10 be 75 a3 69 3d
       0.62737155 0.5388393 -0.14142567 0.05704065
000200 ef 58 97 be 87 b9 0a bd fa 35 8e 3e 50 44 89 bd
       -0.29560038 -0.03386834 0.27775556 -0.06702483
000210 7c b2 9f bd be f6 cf 3e 10 1a 6b be 58 fe 4e 3f
       -0.07797715 0.40617937 -0.22959161 0.8085685
000220 88 0e 93 3e 19 68 c8 3e 5d 4d 2a 3f 5b 1c ed 3e
       0.28722024 0.3914192 0.66524297 0.46310696
000230 ba ce 95 3e a2 90 d3 be 5a 77 2a 3f 20 a7 05 be
       0.29259282 -0.41321284 0.66588366 -0.13052034
000240 dd ad 41 3d 5d 3a 09 bf 3e ef 44 be fd 1d 2f 3e
       0.04728495 -0.5360468 -0.19231889 0.17101283
000250 eb 1d 44 bf 01 c5 db 3d 02 0c 05 3f 8a a3 36 3d
       -0.7660815 0.10730935 0.5197145 0.044589557
000260 51 5e 19 bf 5f a4 c8 3d 61 a1 38 be c5 23 ae 3d
       -0.5990954 0.09796976 -0.18030311 0.08502916
000270 51 53 1d 3f 32 e0 0b 3f f4 40 21 3f b7 19 91 bf
       0.61455256 0.5463897 0.62989736 -1.1335973
000280 39 1e 8a be 2c 17 53 be 24 1e d8 bb ea 74 51 be
       -0.26976183 -0.20614308 -0.00659539 -0.20454755
000290 eb b5 1e 3e 25 b9 3b be 10 2d b6 3e 35 8a 1b 3e
       0.15499084 -0.18332346 0.35581255 0.1518944
0002a0 de 7d 5b 3f f3 a3 c4 3d ec 20 52 be 52 0c e2 3e
       0.85738933 0.09601583 -0.20520371 0.44150025
0002b0 77 da 35 3e dd 41 a1 3d 85 3f 79 3e bf ab 70 3e
       0.17759119 0.078738905 0.24340637 0.23503016
0002c0 09 d9 50 3b 39 82 23 3f bc 45 04 3f a6 a8 1e bf
       0.0031867644 0.6387058 0.51668906 -0.6197609
0002d0 41 9d 42 bb 91 80 d8 3c bc 1f b3 be cb 6e 0c be
       -0.0029695781 0.026428493 -0.3498515 -0.13714139
0002e0 50 06 04 be 9e c0 73 be be 73 a4 be 82 f1 df 3e
       -0.12893033 -0.23803946 -0.32119554 0.43738943
0002f0 bb 37 c4 3e 36 c8 65 3f 86 1c 59 be df e9 55 3f
       0.3832377 0.8975862 -0.21202287 0.83559984
000300 0a 82 99 3e ea 07 6b bd 6f 85 13 3f 0e c5 01 bf
       0.29982024 -0.057380594 0.5762548 -0.50691307
000310 74 2a 39 3f b2 5b 13 bf fd a7 c2 bd 78 5a 56 3f
       0.72330403 -0.5756179 -0.095046975 0.83731794

sequential/dense_2/MatMul f4 [7, 10]
000000 72 d4 f1 3d 2c 28 ec be 9c b0 1a 3f ef d8 83 bf
       0.11808099 -0.461244 0.60425735 -1.0300578
000010 9b 72 37 bf d6 57 5e 3e 29 7c 1d 3f 1f 06 c7 3e
       -0.7165925 0.21713194 0.6151758 0.38871858
000020 c0 d2 ac 3e 21 db 1f 3f e9 e1 42 3e 89 30 9d 3f
       0.3375454 0.6244374 0.1903149 1.2280437
000030 ca d8 16 bf 70 fd ce 3d 3f 2a 83 be a7 89 1c bf
       -0.58924544 0.10106933 -0.2561817 -0.6114754
000040 f0 c2 78 bf 42 a0 d8 be 15 ac bf bf 5b 04 97 3d
       -0.9717245 -0.42309767 -1.497439 0.073738776
000050 91 c2 9f be ec 9c a8 be 13 cf 86 be e6 2f 4d bf
       -0.3120313 -0.32932222 -0.2632986 -0.8015121
000060 82 ef 3f 3f d4 01 59 3f 9a c5 16 3f 23 4b e8 be
       0.74974835 0.84768414 0.58895266 -0.45369825
000070 01 90 73 be df 38 3d bf 01 c1 67 bf 06 6c 45 3e
       -0.23785402 -0.73914903 -0.90528876 0.19279489
000080 71 28 f6 bd 17 c6 55 3e de 5a 4a bf 8e 93 0d bf
       -0.12019432 0.20876347 -0.790449 -0.55303276
000090 48 f3 2f 3f 40 fd 67 3f c7 01 10 3f 8d 54 64 bf
       0.6873059 0.90620804 0.5625271 -0.89191514
0000a0 b4 76 2c 3f 4f 59 11 3e 7a 4c 5d bf ca 73 57 be
       0.67368627 0.14194225 -0.8644482 -0.21040264
0000b0 84 b2 a9 3e 56 aa fe 3d 84 20 21 bd c6 be 8e be
       0.3314401 0.12434833 -0.03933765 -0.27879924
0000c0 da e3 d4 3d 23 aa 95 bf 7b 78 73 3f f8 2a 8c bd
       0.10395022 -1.1692547 0.95105714 -0.06844133
0000d0 f2 40 0d 3f 61 4a 41 bf 89 dc c7 bd 79 9b 4f bf
       0.55177224 -0.7550412 -0.097588606 -0.8109661
0000e0 cf ef bd be 4e 65 1c bf 05 12 92 be 26 c3 1c 3e
       -0.37097022 -0.6109208 -0.28529373 0.15308818
0000f0 c1 fb 99 be 1a df 31 bf 62 2f fc be fb 05 97 3e
       -0.30074885 -0.6948105 -0.492549 0.2949675
000100 c2 f7 ef be 28 bd 13 3e 60 cc 6f bf 7c a4 8c be
       -0.46868712 0.14427626 -0.93671227 -0.27469242
000110 49 80 51 3f f0 a4 55 3f
       0.8183637 0.834548
