hand-gesture-recognition-mediapipe-main/model/keypoint_classifier/keypoint_classifier.tflite (tflite, 6632 bytes, 6 tensors)

sequential/dense/BiasAdd/ReadVariableOp f4 [20]
000000 79 8f 42 be 1c 69 0b be 93 77 7a 3e 27 67 17 bd
       -0.19000043 -0.13614315 0.24459676 -0.036963608
000010 cd 78 a0 bd dc d9 9f 3e 93 42 03 bf 3d 18 1b be
       -0.07835541 0.312209 -0.5127346 -0.15145965
000020 c0 d1 b3 3d a9 a9 89 ba 42 1d cd be ae 55 9a 3e
       0.08780241 -0.0010502833 -0.40061384 0.30143493
000030 40 ce 6f 3e 7d 6e f6 be 75 58 49 bd e7 5b de bd
       0.23418522 -0.4813117 -0.049156625 -0.10857373
000040 be f6 41 3e c5 16 fc 3d cc 3e 1e bf 37 c1 29 3e
       0.18941781 0.123090304 -0.6181457 0.16577612

sequential/dense_2/BiasAdd/ReadVariableOp f4 [6]
000000 fd 6b e0 3d c5 af a3 3e 14 1a 25 be e0 92 57 3e
       0.10958097 0.3197004 -0.1612323 0.21052122
000010 71 ae d4 be 7d 0c ae 3c
       -0.41539338 0.02124619

sequential/dense_1/BiasAdd/ReadVariableOp f4 [10]
000000 d0 cf cf bc 9e a1 16 be 19 47 12 3f db df 6e 3e
       -0.025367647 -0.1471009 0.57139736 0.23327582
000010 16 11 34 3f cc 12 59 3e bb c1 87 bd 2d b3 93 3e
       0.7033857 0.21198577 -0.06628748 0.28847638
000020 55 75 9a 3e e5 c3 76 3d
       0.30167642 0.060245413

sequential/dense/MatMul f4 [20, 42]
000000 72 95 5b be d6 33 9e be f2 ca 2b bf c1 07 cb 3e
       -0.21443728 -0.30898923 -0.67106545 0.39654353
000010 a4 aa 34 bf 26 30 3b 3e c5 1f 13 bf 1e d2 68 3d
       -0.70572877 0.18280086 -0.5747035 0.05684101
000020 e1 88 4e bf 93 75 3e 3e 52 56 48 bd 36 8c ad 3b
       -0.8067761 0.18599539 -0.048910446 0.0052962555
000030 ec 6a 75 3c ac cd ca 3a 9b 57 df 3d fe 7a 92 3e
       0.014979105 0.0015472672 0.10905381 0.2860946
000040 90 17 aa 3d 4b fc 93 3e 93 33 55 be 58 ed 04 be
       0.083052754 0.28903422 -0.20820455 -0.12981164
000050 1d 15 14 3e c7 fb 19 be 6e 53 dd 3c 8d d1 b5 3e
       0.14461179 -0.15037452 0.027017321 0.35511437
000060 7e a6 76 3e 65 b0 8a 3e 7d ef e8 bd 34 96 53 be
       0.24086949 0.27087703 -0.11373804 -0.20662767
000070 33 12 cd bc 93 53 60 be e2 a6 c9 3d 55 09 f6 3d
       -0.025033092 -0.21906881 0.098462835 0.12013499
000080 b2 dc 7d 3e 99 12 09 3e d9 1b 91 3e 5c 60 81 be
       0.2479122 0.13386 0.2834156 -0.2526883
000090 6a dd 63 3e 57 51 59 be 8d 46 c5 3e a9 30 c5 be
       0.22252432 -0.21222435 0.38530388 -0.38513687
0000a0 2b e5 6b 3e 12 be c0 bd f8 58 4b 3d 08 bd 4d 3e
       0.2303664 -0.09411253 0.049645394 0.20091641
0000b0 40 24 e8 3e f6 d1 ed 3e 86 c6 63 3e fc cb 8a 3e
       0.45340157 0.4644925 0.222437 0.27108753
0000c0 6d 0d 73 3e d8 2c aa 3e da c7 3f 3e 7b 43 6f 3e
       0.2373559 0.33237338 0.18728581 0.23365586
0000d0 fc 31 62 3e ac fa 99 3d 92 3e 27 3e f7 7c df 3d
       0.2208938 0.07518515 0.16332462 0.10912507
0000e0 e6 16 38 3d 40 5b 9a be c4 59 85 be 8d 57 cf be
       0.044943713 -0.30147743 -0.26045048 -0.40496483
0000f0 ee 0b 63 3e 82 14 f9 3d 79 b9 68 3e 03 fe d6 bd
       0.2217252 0.12162115 0.22727002 -0.10497668
000100 e5 e2 ad bd f2 8d 6e be 24 ba d7 be bf a5 f6 be
       -0.08490542 -0.23296335 -0.42134202 -0.4817333
000110 a1 22 a3 3d b5 69 a0 3d 41 a9 b1 3d 64 bd 18 be
       0.07965589 0.07832662 0.08674861 -0.14915997
000120 10 d2 47 be 94 40 f4 bd 41 58 8a be ff 05 3a bf
       -0.19513726 -0.1192638 -0.27020457 -0.726654
000130 f1 d0 3e be 66 89 b0 3c a3 12 98 bd 07 df a7 bd
       -0.18634392 0.021549892 -0.0742543 -0.08196836
000140 7d 60 8f be 8e fc 44 bd 83 c2 0d bf 30 7c 8f be
       -0.28003302 -0.048092417 -0.55374926 -0.28024435
000150 7c 87 8e 3e fe e3 cb bd b1 ef c9 3e 7c 98 20 be
       0.2783774 -0.099555954 0.39440683 -0.15683168
000160 fb 07 9f 3e 20 03 c4 be a7 c4 90 3e 38 d9 d6 3c
       0.31060776 -0.38283634 0.28275034 0.026226625
000170 39 be 18 3e 43 a0 63 3d 29 9b ae 3e a7 72 a0 3c
       0.14916314 0.05557276 0.34102753 0.01958592
000180 97 36 8a 3e 49 3e e0 bd 29 df 2d 3e 3c 51 a3 be
       0.26994774 -0.1094938 0.1697966 -0.31897914
000190 4d cf 99 3d 99 96 ed be e4 0e a6 3d 7d 46 5c bd
       0.075102426 -0.4640396 0.08108309 -0.05377816
0001a0 eb 0c 15 bc 2f a4 26 bd e9 a1 ce bc b2 fe ff bd
       -0.009097318 -0.04068392 -0.02522369 -0.12499751
0001b0 8c 1c 46 be 75 59 32 be b4 a2 e2 bd 00 41 51 3d
       -0.19346827 -0.17416938 -0.110661894 0.05108738
0001c0 7e 7a 7b bd 46 23 17 3e 95 d4 25 3e a6 fe 9a 3d
       -0.061396115 0.1475955 0.16194375 0.075681016
0001d0 7c e5 15 bd b5 2f 0e 3e d1 a9 96 be 0b a3 6b 3d
       -0.036595806 0.13885386 -0.29426435 0.057528537
0001e0 82 01 71 3d 50 23 62 3e 5f 19 d1 3d dc b7 e8 3c
       0.05883933 0.22083783 0.10209917 0.028407983
0001f0 5e bd d8 3d f9 19 81 3e 24 1a fd 3d 38 03 bf bd
       0.10582994 0.25215128 0.123585016 -0.09326786
000200 92 85 08 be a1 fd be bd 8b c8 01 3e d2 f5 48 be
       -0.13332203 -0.093257196 0.12674157 -0.19625023
000210 62 f4 f4 bd 1b 80 e2 be 41 a0 62 3e d9 bd 16 bf
       -0.11960675 -0.44238362 0.22131445 -0.58883435
000220 ad ff 0c 3e 95 84 58 be f5 f8 ab be 9f e7 91 3e
       0.13769408 -0.21144326 -0.33588377 0.28497025
000230 d5 67 eb 3d 13 0a 83 3e 2e 6b 16 be c0 0c d4 3e
       0.11494414 0.25593624 -0.14689323 0.41415977
000240 1e de 94 be c9 79 14 3e 6a ba 28 be de d2 ec 3e
       -0.29075712 0.14499582 -0.16477361 0.4625463
000250 32 cd e5 bd 63 85 54 3d fe 85 1a 3e 98 13 b3 3d
       -0.112207785 0.05188502 0.15090176 0.087439716
000260 21 41 dc bd 05 f7 8e 3e ce 96 8b be d8 0a e4 3e
       -0.1075461 0.27922836 -0.27263492 0.44539523
000270 46 b3 25 3c de 74 f6 3e bd 63 6b 3d f1 b5 90 3d
       0.010113543 0.48136038 0.057468165 0.070659526
000280 c6 c4 be be a9 90 b9 3e d8 85 0f be 6e 7b be 3e
       -0.372595 0.3624318 -0.14015901 0.37203544
000290 7b 0c 92 be b1 8c c5 3e 3c 0c 08 3e 80 ee b4 3e
       -0.28525147 0.38583902 0.13285917 0.3533821
0002a0 0c d9 2a 3e 2a 84 2f 3e aa e6 9b 3e 4e 33 dd be
       0.1668436 0.1714026 0.3044942 -0.43203205
0002b0 d8 3a 27 be 16 38 a0 be 0f a0 79 3e 29 1b e2 be
       -0.16331041 -0.3129279 0.24377464 -0.44161347
0002c0 a3 3c 7a 3d dc fe 29 bf 2e ed 98 3c 79 81 00 be
       0.061092984 -0.6640451 0.018667784 -0.1254939
0002d0 f9 f0 52 be 69 a6 1f 3e 6e 58 81 be 03 9d c7 3e
       -0.20599736 0.15590824 -0.2526278 0.38986978
0002e0 0d 64 27 3e 08 64 b7 3e 47 fa cd 3d 7b 6e 43 3d
       0.1634676 0.35818505 0.10057502 0.047712784
0002f0 4a 67 09 3e a6 6b 02 3e 90 e7 12 be 1c 0e cd 3e
       0.13418308 0.12736377 -0.14346147 0.40049827
000300 87 0a af bd 19 f5 8e 3e de 6b a7 be c1 21 a7 3e
       -0.0854693 0.2792137 -0.32699484 0.3264294
000310 7d 1b a7 be f1 1c cd 3e b6 aa af be f8 95 c0 3e
       -0.3263816 0.40061143 -0.3430993 0.37614417
000320 9e fc 74 3c 0e 77 ed 3e 19 f2 42 3d 22 7b a3 3e
       0.014952807 0.46379894 0.047594164 0.3192988
000330 64 8c 37 bd 36 06 ab 3e 73 4a 91 be 51 2b ca 3e
       -0.04481162 0.33403176 -0.28377113 0.39486173
000340 98 c9 26 be 59 0e 40 3e cd 13 80 be 94 69 99 bd
       -0.1628784 0.18755473 -0.25015107 -0.074908406
000350 cb c8 fd 3d 78 8d 45 bf 49 6e ee 3c 67 b4 31 bf
       0.12391814 -0.7716899 0.029105322 -0.694159
000360 33 59 f2 bd 45 ff 82 be 1b a5 ea bd da 8e d0 be
       -0.1183342 -0.2558538 -0.114572726 -0.40733987
000370 d9 b9 a0 3c 06 50 35 be bf 29 e4 3e 20 bb 42 be
       0.019619869 -0.17706308 0.445631 -0.19016695
000380 6a ff b3 3e 4b df e6 bd e3 35 5e 3e 59 c7 23 be
       0.35155803 -0.112730585 0.21700244 -0.15994014
000390 cc b7 b1 3e 00 fa 87 be 53 83 9e 3e 23 1f 73 be
       0.34710538 -0.26557922 0.30959567 -0.23742346
0003a0 b9 83 80 3e f9 53 84 be d8 3c 88 3e bd 91 09 be
       0.25100496 -0.25845316 0.2660892 -0.13434501
0003b0 20 d4 ba 3d 48 54 43 be 22 b7 90 3e 23 9b 10 be
       0.09122491 -0.1907512 0.2826472 -0.1412168
0003c0 7b a1 e4 3e 6c b8 05 be 89 4f a7 3e ef c2 69 3e
       0.4465445 -0.13058633 0.32677868 0.22828268
0003d0 45 bf 6c 3e 26 c5 c5 3c 84 c6 c1 3e 9d 9a 6a be
       0.23119839 0.02414186 0.37846768 -0.22910543
0003e0 09 d7 07 3f ab 20 cc 3d 02 33 a9 3e 99 ed c5 3d
       0.5306249 0.099671684 0.33046728 0.09664459
0003f0 84 f6 cf 3d 80 71 10 bd a8 58 2b be c3 9c 83 3f
       0.10154441 -0.035264492 -0.16733038 1.0282215

sequential/dense_1/MatMul f4 [10, 20]
000000 93 f0 b8 bc eb 40 61 3f d0 a6 0e 3f 85 e5 75 be
       -0.022575652 0.8798968 0.55723286 -0.24013336
000010 b3 e0 05 3d 0e 60 f7 bc 51 02 99 ba 7a c0 da be
       0.032684993 -0.03019717 -0.0011673664 -0.42724973
000020 ae c6 26 3f 39 7b be 3e a3 6d 98 3e 2f 09 4f 3f
       0.6514691 0.37203386 0.29771146 0.8087339
000030 fc 8c e8 3e 3b dc 31 3f 4a 01 48 be 20 29 d2 be
       0.45420063 0.6947667 -0.19531742 -0.41047
000040 0e d9 c3 be 8f c5 b4 be 78 0c 99 3e ea 56 15 3f
       -0.38251537 -0.35306975 0.29892325 0.58335745
000050 3a a2 8e 3b 98 cf e1 3e 15 4f 11 be b8 c9 70 3e
       0.004352835 0.44103694 -0.14190324 0.2351445
000060 c3 a8 4c 3f b8 e7 f1 bd 20 44 0c 3f f0 04 79 3d
       0.7994501 -0.11811775 0.5479145 0.060795724
000070 83 1d 54 be b8 c4 72 bd 34 f3 ff be f3 b0 95 3c
       -0.20714383 -0.059269637 -0.49990237 0.018272853
000080 76 ef 1d be 6a 3c d1 3e b4 9f b5 3e 59 d6 32 be
       -0.15423378 0.40866405 0.35473406 -0.1746458
000090 78 06 de 3e 05 01 04 be 5f 66 65 be 59 6f a3 3e
       0.4336431 -0.12891014 -0.22402333 0.3192089
0000a0 8b 45 b3 3e 59 1e 93 3d fd 1b c8 3e f2 c6 8c be
       0.35013995 0.07183523 0.39083853 -0.27495533
0000b0 f9 ec 3d bd 59 4a 3f 3f 52 69 fc bc e3 67 ed be
       -0.046368573 0.7472282 -0.03081194 -0.46368322
0000c0 ed 2f 31 3f e3 3f c8 3e 30 81 0a be 88 a1 9f 3e
       0.69213754 0.39111242 -0.13525844 0.31177926
0000d0 9a 08 1e 3f ab df 20 be 5b 5d 9c be 58 b3 12 bf
       0.61731875 -0.15710323 -0.30539975 -0.57304907
0000e0 fe 5c b1 3e c0 fe 77 3f f6 41 68 3e 2c 65 29 3f
       0.3464126 0.9687309 0.22681412 0.6617
0000f0 92 42 5c 3f 62 ae 96 3e d1 4f 46 bf c7 aa 06 bf
       0.8603908 0.2942992 -0.7746554 -0.52604336
000100 1d fe 80 be 4a 1f 82 3e a8 33 75 3e 4b 6e 9b 3f
       -0.25193873 0.25414497 0.23945487 1.2143034
000110 86 a1 94 be fa 7d 6e 3e 25 db 0b bd 0c b1 1e bf
       -0.29029483 0.23290244 -0.03414454 -0.619889
000120 3c 6a 97 be 66 a9 10 3f a7 1e 39 bd e0 7b 67 3f
       -0.29573238 0.5650848 -0.045195248 0.90423393
000130 8b 39 45 be d9 81 96 3e 4b bf fc 3e 6f 9c 8a be
       -0.19260232 0.2939594 0.49364695 -0.27072474
000140 4a f1 bc 3e ba e3 01 bf a1 9a df bd 7f f9 2a 3f
       0.3690284 -0.5073811 -0.10918165 0.6678695
000150 33 aa 28 3f 16 79 e3 3e c9 f2 82 be 76 22 a6 be
       0.65884703 0.4442832 -0.25575855 -0.32448167
000160 38 a9 da be c3 89 90 3e d9 b8 74 3e 7f d0 d5 be
       -0.4270723 0.28230104 0.23898639 -0.41760632
000170 b6 99 81 3e 48 94 09 be bf fe a4 be 67 41 ec be
       0.25312585 -0.13435471 -0.32225606 -0.46143648
000180 57 0c 79 3f d4 fe 34 3f 91 71 b7 3e b7 72 df be
       0.97284454 0.70701337 0.35828832 -0.43642208
000190 c5 5a b7 bb 46 d2 9c 3d e2 70 46 be db e0 45 3e
       -0.0055955374 0.07657294 -0.19378999 0.19324057
0001a0 45 35 1a 3f 03 2d 01 bf 21 c8 e4 3e af 4c 2f 3d
       0.6023753 -0.5045931 0.44683936 0.04279774
0001b0 5f 9d 0d be 76 66 ad be 8c 15 12 3f 43 3b b9 3e
       -0.13829564 -0.33867234 0.5706413 0.36178026
0001c0 c7 fe 8e be 43 6c b7 3e 4b 37 d9 be 26 bc ad 3e
       -0.27928755 0.35824785 -0.42424998 0.33932608
0001d0 58 69 64 3e 52 b0 0e bf 6e 67 1e 3f a0 9d 86 3e
       0.2230581 -0.55737793 0.6187657 0.26292133
0001e0 03 76 57 3e b7 a3 15 3d 96 7a 0a bf 70 f8 08 be
       0.21041112 0.036533084 -0.540933 -0.13376021
0001f0 e8 ac df bd 9e 21 3c bf 70 4b 14 3f fc 50 38 bf
       -0.10921651 -0.73488796 0.5792761 -0.7199857
000200 89 51 aa 3e fc a1 ce 3e a1 9f d9 3c 21 f6 1f 3a
       0.3326533 0.4035796 0.026565375 0.0006102045
000210 0d 02 88 3e 4a 75 17 3f ef 8c 0c 3e d1 0d 5b bf
       0.26564065 0.59163344 0.13725637 -0.8556796
000220 8d 5f 8e 3c c6 25 fe 3e dd b3 d0 3e 2b 05 66 3e
       0.017379547 0.49638194 0.40762225 0.22462909
000230 cc 49 37 bd 24 81 0a 3f ab 1b 9a 3e b5 d6 95 3e
       -0.044748113 0.541033 0.30099234 0.2926537
000240 d7 50 01 be 5e dd e8 3c b2 23 ca be b8 32 8e be
       -0.12628494 0.028425869 -0.39480358 -0.2777307
000250 ed a3 27 3f bd cf 66 bd 90 6e ec bd 24 2a 56 3f
       0.65484506 -0.05635046 -0.115445256 0.8365805
000260 63 a6 5c 3d fe 4d b0 be a4 b6 d2 bd d9 d0 7f 3e
       0.053869616 -0.34434503 -0.10288742 0.24982013
000270 f2 ae 3a bf d4 ae 90 be eb f9 18 3f 89 82 14 3d
       -0.72923195 -0.28258383 0.59756345 0.0362573
000280 3a ee 84 be e7 aa 95 3d 39 6d 18 3f b7 40 2c 3f
       -0.25963002 0.07307988 0.5954166 0.67286247
000290 65 9d cd 3e 8f f7 b4 3d d0 df 8e bd b1 20 fb be
       0.40159145 0.088362806 -0.069762826 -0.4904838
0002a0 74 7d 20 bf 00 e7 94 bd f7 09 0a 3e a4 a6 39 3f
       -0.62691426 -0.07270622 0.13480364 0.725199
0002b0 b7 17 61 3e 66 20 0b 3d 80 1f 81 bd e2 3b 29 be
       0.21981703 0.033966444 -0.06304836 -0.1652675
0002c0 0f f2 2b 3f fd 1a d8 be 2a cd b4 bd d4 b0 db 3d
       0.6716623 -0.4220809 -0.088281944 0.10727087
0002d0 4b 5c 25 3e aa ee a3 3e 66 0b 28 bf 7e a5 93 be
       0.16148488 0.32018024 -0.6564239 -0.28837198
0002e0 58 67 a9 be 26 31 13 bf 1b 40 11 3f 13 9c 49 3f
       -0.33086658 -0.5749687 0.5673844 0.78753775
0002f0 b4 06 82 3b be f4 a4 be ae 36 c7 3e 5c d2 c2 3d
       0.003968084 -0.32217973 0.38908905 0.09512779
000300 20 60 d9 3c 15 65 63 3f 19 53 1a be 98 e2 fb 3e
       0.026535094 0.88826114 -0.15070762 0.49196315
000310 fb 10 4f bc 5c 49 13 3e 0f 03 a2 3e 68 cd 8a bc
       -0.012638326 0.14383453 0.3164296 -0.016943648

sequential/dense_2/MatMul f4 [6, 10]
000000 0c 69 72 bf 29 79 3d bf ac 4c 2d 3f ba 61 28 3e
       -0.9469154 -0.74013 0.67695117 0.1644353
000010 ab 7a e5 3e 80 7f 2a bf 9a 78 5f 3e 5f 2d 88 bf
       0.4482015 -0.666008 0.2182335 -1.0638846
000020 f8 5c 0b bf 5a 68 2c 3f 95 32 1e 3f 64 c7 94 be
       -0.54438734 0.6734673 0.6179593 -0.29058373
000030 89 41 5d 3f 5d 84 62 bf be 62 5c bf ef ec 29 bf
       0.86428124 -0.8848322 -0.8608817 -0.66377157
000040 98 fb 31 bf b7 ae 3a 3e 64 11 c8 3b 79 ed f1 be
       -0.69524527 0.18230711 0.0061055887 -0.4725149
000050 f3 eb a2 3e be 6a 8b 3e b3 a5 88 bf fc e5 66 3f
       0.3182064 0.27229875 -1.0675567 0.9019468
000060 d9 db 8c bf 13 d8 d7 3e 20 01 f9 be 38 13 73 be
       -1.1004592 0.4215704 -0.4863367 -0.237378
000070 34 f8 6c bf f9 35 fa 3e ec bc 7d be c7 78 c5 3e
       -0.9256623 0.48869303 -0.24779099 0.38568708
000080 ad de 59 bf 30 1e 8e bf b5 68 d1 3e 1e 0a 2e 3f
       -0.851054 -1.1102962 0.40900198 0.6798419
000090 be 5c 9d bf 82 d4 3a 3e b6 fa 37 3f 8f b9 18 bf
       -1.2293928 0.18245128 0.7186693 -0.5965814
0000a0 75 ee 46 3f 7e c8 a4 3d 5e fc 90 be 6e 31 8b be
       0.77707607 0.08046053 -0.2831754 -0.2718615
0000b0 fd 8a 2c bf 79 90 45 bc d3 75 33 3f 37 a7 10 be
       -0.6739958 -0.012058371 0.7010166 -0.14126287
0000c0 bc 85 c2 be 07 b3 cd 3e 71 c0 99 3c c4 6a 64 bf
       -0.37992656 0.4017565 0.018768521 -0.8922541
0000d0 6a f4 31 bc c4 38 41 3f 0b 93 3d 3e 8a 08 18 bf
       -0.0108614955 0.7547724 0.18513124 -0.5938803
0000e0 42 d5 84 be 15 83 1a 3d bb 1c 45 bf ee 85 5e bf
       -0.25943953 0.037722666 -0.76996964 -0.8692311
