hand-gesture-recognition-mediapipe-main/model/keypoint_classifier/keypoint_classifier.tflite (tflite, 6676 bytes, 6 tensors)

sequential/dense/BiasAdd/ReadVariableOp f4 [20]
000000 1c fd 8b bd a0 68 17 3f 96 e5 8e bd ab 0d 59 be
       -0.06835386 0.5914402 -0.06977384 -0.2119662
000010 bd 9e 13 3e 75 9c 4e be 2d c8 0a bd f4 fd 14 be
       0.14416023 -0.20176871 -0.03388231 -0.1455
000020 d7 3c ca 3d 4d 89 13 3d ab 65 0c be 31 5d 98 3e
       0.098748855 0.036019612 -0.13710658 0.297586
000030 73 e8 c0 3e 93 04 7e be 46 7e fd bd 84 6f 80 3d
       0.37677345 -0.24806432 -0.123776 0.0627127
000040 07 3a c8 3d 19 d2 32 be c7 26 84 be b4 75 41 3d
       0.09776693 -0.17462958 -0.25810835 0.04723139

sequential/dense_2/BiasAdd/ReadVariableOp f4 [7]
000000 0b a5 12 be ec 3b f9 3e 77 1b e3 be bf 79 56 be
       -0.14320771 0.4867853 -0.44356892 -0.2094488
000010 cc 3a 19 bd b9 da 85 3e ca b1 81 be
       -0.03740959 0.26143435 -0.25330955

sequential/dense_1/BiasAdd/ReadVariableOp f4 [10]
000000 dd e4 55 3f 8e e8 38 3f 70 f3 81 3e 01 2a 80 3d
       0.8355234 0.7222985 0.2538104 0.062580116
000010 a1 18 24 3f 49 0d e1 3c 4e 47 6c 3c c6 ca ef 3e
       0.6410008 0.027472155 0.014421297 0.4683439
000020 6e 35 d5 3e 4b 13 46 3e
       0.41642326 0.19343297

sequential/dense/MatMul f4 [20, 42]
000000 70 58 23 bd 45 18 01 be 86 ef 42 3f 4d d1 90 3e
       -0.039879262 -0.12606914 0.76146734 0.28284684
000010 08 a2 ff 3e b7 d7 ca bc c0 aa dd 3d e2 bd 0c 3e
       0.49928308 -0.024761064 0.108235836 0.1374431
000020 f0 fa 7b 3e 9e a0 e2 bb 8b eb ff 3e 3f 60 cd bd
       0.24607444 -0.0069161197 0.49984393 -0.10028123
000030 62 0b 06 3f 8e 39 ce 3c 90 c9 b8 3e 09 32 e3 3d
       0.5236112 0.025173929 0.3609128 0.11093528
000040 c1 41 99 3e 0a a9 f2 3d f3 54 65 3e 32 05 0a be
       0.2993298 0.11848648 0.22395687 -0.13478544
000050 ae 0a 3f 3e 8e a9 cf 3d 88 79 92 bc da 53 93 3d
       0.18656418 0.10139762 -0.017880216 0.07193728
000060 8c 49 4f bb 84 e7 b3 3d 0e 74 f3 3c 28 dd b2 bd
       -0.003162953 0.087843925 0.029718425 -0.087335885
000070 91 62 b3 3d 7f 6f cb bd ab d8 8d bd 0d 30 9e be
       0.087590344 -0.099333756 -0.06926092 -0.30896035
000080 c7 d5 c4 bd a5 5b 27 bf 7f f3 70 3b ce fa 1b be
       -0.09611087 -0.65374213 0.0036766229 -0.15232393
000090 7a 4a 9b 3e b3 c3 48 be 6b 33 f4 3e 39 95 e2 be
       0.3033026 -0.19605903 0.4769548 -0.44254473
0000a0 4f 26 11 3f 23 ae 4f bf 66 d8 7b be 78 c1 0a 3d
       0.5669908 -0.81125087 -0.24594268 0.033875912
0000b0 f7 00 f1 3e 3d 9f aa be e2 5a d2 3c bb 11 c2 3e
       0.4707105 -0.33324614 0.025678102 0.37904152
0000c0 61 be 91 be d0 a5 33 3f 8c 91 a4 be 4a c2 67 3f
       -0.2846556 0.70174885 -0.32142293 0.90530837
0000d0 9a df 9e 3e 59 3b 87 be a3 a3 ba 3d 35 de b6 be
       0.3102997 -0.26412466 0.091132425 -0.35716406
0000e0 34 b3 11 3e 9e f5 96 be f2 4a b3 3c 64 53 3f bd
       0.14228517 -0.29484266 0.021886323 -0.046710387
0000f0 a7 3e 9a 3e 58 dd bb be b4 f5 66 3e a3 a9 a6 be
       0.30125925 -0.3669231 0.22554666 -0.32551298
000100 e4 34 9e 3d fa 30 d0 be 92 c9 0a 3c e8 bc 80 be
       0.07724932 -0.40662366 0.00847091 -0.25144124
000110 6a 2f bb 3e 0b 91 be be a1 24 e3 3d 92 3a 4c be
       0.36559612 -0.37220034 0.11090971 -0.19944218
000120 ff 27 0c 3e 61 a1 3d 3e f5 2b e1 3d 1d 5a b2 3e
       0.13687132 0.18518592 0.10994712 0.34834376
000130 4e 35 26 3e ee 42 35 be 62 9f a2 bd c6 e7 06 3d
       0.16231272 -0.17701313 -0.07940556 0.03293588
000140 ad e8 b5 bd 01 65 aa 3e 9b 1e 04 3d 8f 57 88 3e
       -0.0888227 0.33280185 0.03225575 0.26629302
000150 c8 7f 99 bd fc 79 b7 bd f7 30 4b be 28 dd 42 3e
       -0.074950755 -0.089588135 -0.19842897 0.19029677
000160 db 8a 7b 3e d3 db ff 3a 7c 80 5d 3c e4 42 8c 3b
       0.24564688 0.0019520469 0.013519403 0.004280435
000170 34 ad 4c bd 68 0d 65 3e a6 c6 7c bd 56 c2 20 3e
       -0.049969867 0.22368395 -0.061712883 0.15699133
000180 4a ad cf 3d 02 0a 72 3e bd b5 9e 3e 0b 1a 38 be
       0.10140474 0.2363663 0.3099803 -0.17978685
000190 7a 60 67 be 3f 4e 82 3d 45 2f ba bd 60 9c aa 3d
       -0.22595397 0.063625805 -0.09091047 0.083306074
0001a0 38 2a f9 bd 54 1c 11 be 44 f5 42 3e a3 b3 6c bd
       -0.12166256 -0.14170963 0.19038874 -0.057788502
0001b0 c7 00 d3 3d a8 ee ab 3d d4 86 0d bd d1 7e 3a 3e
       0.10302883 0.083951294 -0.03455241 0.18212439
0001c0 12 67 a7 3e c3 74 90 3e 38 99 f3 3d aa 57 4a 3e
       0.32695824 0.28214082 0.118944585 0.19760004
0001d0 0d 37 92 3d 38 ac 71 be 10 21 72 3e b0 5b 6a 3e
       0.07139406 -0.23600852 0.23645425 0.22886539
0001e0 6c 78 fa 3d c0 38 ee 3d 36 a8 8a bd 59 de 4e 3d
       0.1223 0.11631918 -0.06770365 0.050505016
0001f0 d5 8c 9b 3d ad 5d b6 3e a0 65 5e bd 0c 6b 95 be
       0.07595221 0.35618344 -0.054296136 -0.29183233
000200 6a 07 62 be 5e b0 1d be b6 3d a1 3d c4 83 59 3c
       -0.2207314 -0.1539931 0.078730986 0.013276044
000210 4e 94 fb 3d 74 db df 3d 49 e6 f2 bd 83 65 81 3d
       0.12284146 0.10930529 -0.1186033 0.0631819
000220 a1 a4 80 bd 1d 1b ea 3d 94 b8 b4 bd 9e 33 0b bd
       -0.062814005 0.11430953 -0.08824268 -0.033984773
000230 fd ce 77 bd d7 75 be 3d 33 38 4a be 72 38 fb bd
       -0.060500134 0.0929982 -0.19748001 -0.122666255
000240 82 03 13 be 80 37 0c 3e 2e 50 25 bd 24 bf 36 3d
       -0.14356807 0.13693047 -0.04035967 0.04461588
000250 30 1b c2 be 6d 4a b8 bd e6 33 bc be a9 b1 bf bd
       -0.37911367 -0.089985706 -0.36758345 -0.09360058
000260 53 86 e5 bd 69 11 9c 3e 5a 3d f0 be 17 ed 92 3e
       -0.11207261 0.30482033 -0.46921808 0.2869651
000270 92 88 f7 be e6 a7 d2 3c 1c 42 26 bf d7 43 70 bd
       -0.48346382 0.025714826 -0.64944625 -0.058658447
000280 bb e0 df be 8b 47 f5 3e 79 3b b6 be 59 12 d2 3e
       -0.43726143 0.47906145 -0.3559225 0.41029623
000290 39 dd a5 be 34 9f dc 3e 92 8d cc be d2 7b 84 3e
       -0.32395342 0.43090212 -0.3995176 0.25875717
0002a0 c0 c5 28 bc c0 30 5e 3e 04 04 85 3f 05 aa b9 be
       -0.0103010535 0.21698284 1.039185 -0.36262527
0002b0 e5 ef 59 3f c2 94 8a bd 29 88 6b 3f d4 94 59 be
       0.85131675 -0.067666546 0.9200464 -0.2124818
0002c0 07 3f 49 3f 42 8b d1 3c 4c e9 d7 3e 56 17 05 be
       0.786118 0.025579099 0.4217018 -0.12997183
0002d0 84 9d b3 3e 6b 38 10 be 2e c6 af 3e e4 c4 31 be
       0.35081112 -0.14084022 0.34330887 -0.17360264
0002e0 61 57 5c ba ce 68 2c bd 75 f0 f8 3d 16 b4 7d be
       -0.00084053545 -0.042092137 0.121552385 -0.24775729
0002f0 bf 5e a2 3e 92 a3 9e be 68 f2 99 3e 90 38 d3 be
       0.3171291 -0.3098417 0.30067754 -0.4125409
000300 b3 6e 5b 3e 8c d8 dc be 4d 9c 17 be 99 79 8e be
       0.21428947 -0.43133962 -0.14805718 -0.27827147
000310 2c e0 0d 3e c7 3e 4a be 89 4c 47 3e 39 d3 be bd
       0.13855046 -0.1975051 0.1946279 -0.09317631
000320 30 16 33 3e fb d3 c0 bd 30 ba f0 be 97 70 78 be
       0.17488933 -0.09415432 -0.4701705 -0.242617
000330 c2 c9 ed bd 9d 88 a0 bd 2a 82 10 3d d2 42 6b 3e
       -0.11610748 -0.07838557 0.035280384 0.22974709
000340 15 e1 f3 bd d7 3a 60 3e 6c db d3 3d 1c 3d 68 be
       -0.11908165 0.21897446 0.10344586 -0.22679561
000350 82 72 3e 3f 26 a6 80 be 22 05 4a 3f 79 79 13 3d
       0.74393475 -0.2512676 0.7891408 0.036004517
000360 f2 b4 51 3f 4f 8f d8 bd 8c 06 06 3f 12 72 a1 3c
       0.81916726 -0.10574209 0.5235374 0.019707713
000370 13 f4 b9 3e 06 71 80 be e5 b5 58 3e 5e ba f1 3d
       0.36319026 -0.2508623 0.21163137 0.11803125
000380 4a 87 a0 3e df 23 4b 3e 83 77 a9 3e 65 42 2d 3e
       0.31353217 0.19837902 0.33098993 0.16919859
000390 bc 0e 16 bf 48 bd 06 be 21 42 83 3e b2 43 c7 bd
       -0.5861623 -0.13158143 0.2563639 -0.09729709
0003a0 61 03 32 3f ab a1 c8 bd 06 2f c6 3e 1f 2f c8 3d
       0.69536406 -0.09796461 0.3870775 0.09774613
0003b0 73 d4 2e bf 21 ab 04 bf 68 fe 8d 3c e3 0f 35 be
       -0.6829292 -0.5182362 0.017333224 -0.17681842
0003c0 8f f4 e4 3d 53 f7 9e bd 22 f9 51 3e 98 b0 1c bd
       0.11179458 -0.07762017 0.20505193 -0.03825435
0003d0 f9 e2 16 be 7b d3 f8 bd e8 2d 85 bc 79 a3 85 bd
       -0.1473502 -0.12149712 -0.016257241 -0.065253206
0003e0 6a 43 85 3d d2 2f d8 bd 9a 7f cf 3b e8 7d 70 3d
       0.06506999 -0.10555996 0.00633235 0.058713824
0003f0 a1 a1 14 be 5a 3d 79 be ac 6b 3e bf 5f 01 6b 3f
       -0.14514782 -0.2433981 -0.74383044 0.9179897

sequential/dense_1/MatMul f4 [10, 20]
000000 c4 d9 37 3e a9 b0 1d bd d8 94 c2 3e 90 18 c7 3d
       0.17954165 -0.038498554 0.38004184 0.09721482
000010 9a a3 7e 3c 2a 2a 21 be ff 3a b7 3e 61 44 e7 be
       0.015541935 -0.1573874 0.35787198 -0.45169356
000020 ca df 99 3e d7 9d dd 3e 9e be 04 bf 8e 95 ed 3e
       0.3005355 0.43284485 -0.5185336 0.46403164
000030 a2 c2 b0 3e f3 d1 df 3e 40 d9 3f 3e 6f 71 93 3c
       0.34523493 0.43714866 0.18735218 0.017998425
000040 27 96 10 bf e3 fc 95 3e 40 39 6f 3e 5e 25 e6 3e
       -0.56479114 0.292945 0.23361683 0.44950384
000050 8f 38 8c be ef 8f f7 3e 90 c9 d7 bc e6 fa 9b 3e
       -0.273869 0.48352 -0.02634123 0.30464858
000060 3e b5 12 3f 2e 49 03 3e fe 4f b4 be 0d 6e e4 3d
       0.57307804 0.12820885 -0.3521728 0.11153803
000070 cb ad 04 be f5 e8 e9 bc 6b 86 67 bf b7 3b c7 3e
       -0.12956922 -0.028553465 -0.9043948 0.38912746
000080 1c 9f 3b 3f 9c b4 e0 3c 44 6d 8c be 31 b9 21 bf
       0.73289657 0.027429871 -0.27427113 -0.63173205
000090 77 25 2d 3e 34 6b 24 be 7a e7 96 3e c8 79 24 3f
       0.16908823 -0.1605652 0.29473478 0.64248323
0000a0 01 7a b3 3e 0c 6b 87 bd a8 d4 87 3e 73 d0 6b bd
       0.3505402 -0.066122144 0.2652943 -0.05757184
0000b0 ab 84 44 bd d3 bc d9 3e ed 3c f2 bb c7 9b 2a be
       -0.047978085 0.42526874 -0.007392517 -0.16660987
0000c0 2a 03 b7 3d 25 7f 51 3e 02 d6 fa bd 7c ae 1d bb
       0.0893615 0.20458658 -0.1224785 -0.00240603
0000d0 94 64 c9 bd cb 66 69 3f fc 9e 95 3e e0 60 c4 bc
       -0.09833637 0.91172475 0.29222858 -0.023971975
0000e0 e1 3c be bc 78 83 89 3f d2 95 c4 bd 88 b2 8f 3d
       -0.023222389 1.0743246 -0.095988885 0.07016474
0000f0 9e e1 d2 3d ee 96 4e 3e 73 41 cd be 86 65 93 3d
       0.10296939 0.20174763 -0.40088996 0.071970984
000100 ce 6d c3 3d 64 21 11 3c 5b 5f 44 3c 7e 37 0d bf
       0.09542428 0.008858059 0.011985625 -0.551628
000110 d8 04 09 3f 9f 72 2d 3c 17 05 59 bf a4 36 a3 be
       0.53523016 0.01058641 -0.8477339 -0.31877625
000120 5d 6f 97 be b7 35 ca 3c 8f fb 19 3e 7d 40 25 bf
       -0.2957715 0.024683816 0.15037368 -0.64551526
000130 63 64 c3 3e 79 1d 99 bb db 16 24 3d 5f 1e 1c bf
       0.38162526 -0.004672703 0.04006086 -0.6098384
000140 9c 4d d2 3e 3e ea 15 3e 9d ec 62 3d 72 23 7f be
       0.41074836 0.14640138 0.055401433 -0.24915865
000150 7d 36 c0 3c 73 d5 c7 3e e2 a4 68 3e 6a 29 26 3e
       0.023463482 0.39030036 0.22719148 0.16226736
000160 c7 79 76 3f 40 56 96 3d 6a ae 84 3e dc 2f 2f 3f
       0.9627957 0.0734067 0.25914317 0.684324
000170 76 b9 01 3f 96 a2 a9 bd cd 82 7a 3e b7 17 8b 3f
       0.50673616 -0.08282964 0.24463959 1.0866612
000180 42 e6 c1 3e d5 0f 57 be 66 4a 89 be 80 00 5f be
       0.37870985 -0.21002133 -0.26814574 -0.21777534
000190 43 0a 77 be ca 06 1f 3f 4f d7 b6 be 8b 31 3b 3e
       -0.24125008 0.62119734 -0.35711142 0.18280618
0001a0 26 d8 16 bf c3 9f 5c be d3 ef 0c 3f 59 df f7 3d
       -0.58923566 -0.2154532 0.5505344 0.12103147
0001b0 30 c8 d9 3e e3 60 09 3f 2b 0a 4b 3f b2 d4 02 3f
       0.42535543 0.5366346 0.7931239 0.511058
0001c0 24 6f 0e bf 7f 74 3b 3f c9 d5 b4 be c9 dd 3f 3f
       -0.5563834 0.73224634 -0.35319355 0.7494779
0001d0 32 10 43 3f a7 31 b9 3e ad 37 9c 3e 2a 6a 64 bf
       0.7619659 0.36170694 0.30511227 -0.89224494
0001e0 24 18 54 3f cc 8c a5 3d 7e 5f f9 bc 0d b9 68 bf
       0.82849336 0.080834955 -0.030441042 -0.90907365
0001f0 54 f6 eb 3e 08 16 48 3f 0f ef 2f bf ab 6e 23 bf
       0.4608637 0.78158617 -0.6872415 -0.6384074
000200 3c 7b 84 bd ec 0e 87 be 0c e9 2a bd f4 b7 98 3c
       -0.064688176 -0.26378572 -0.041726157 0.018642403
000210 6c b4 19 3e ee 8e e2 bd a1 ea 51 3f a3 20 c0 3d
       0.15010232 -0.11062418 0.8199864 0.09381225
000220 08 03 d8 be c2 14 f2 3e ca e2 42 bf b7 33 bc 3e
       -0.42189813 0.47281462 -0.761273 0.36758205
000230 3f 0d 9f 3e fe 91 7d 3f 51 08 75 be 94 5a 6c 3e
       0.31064793 0.9905089 -0.23928954 0.23081428
000240 a1 23 f6 3e 2a aa 4d 3f d7 e5 3d 3e f7 15 c2 bd
       0.48074058 0.80337775 0.18544708 -0.09476846
000250 34 05 96 bd 40 47 8d 3f 75 7c c1 3e 65 a9 a8 bd
       -0.07325211 1.1037369 0.37790266 -0.082354344
000260 c0 be ad bd 37 b3 0a 3f 1a dc 1a 3f e2 a9 40 be
       -0.08483648 0.5417971 0.604921 -0.18814805
000270 5c e2 5c be 46 f3 7f 3f 01 e7 90 3e 76 1b 91 3d
       -0.21570724 0.9998058 0.28301242 0.07085316
000280 0d bd fd 3e bc 87 01 ba f6 13 76 bd e4 13 ca 3d
       0.49558297 -0.00049411855 -0.06007763 0.09867075
000290 01 1e 8d bf 2a 99 fe 3e 18 b1 86 be 3c 5d 75 bf
       -1.1024781 0.4972623 -0.26306987 -0.9584539
0002a0 0d 07 45 3e ba 7a 08 bf 38 86 89 be b3 d7 d3 be
       0.19240971 -0.53312266 -0.26860213 -0.41375503
0002b0 98 5f c6 3e 34 c8 a4 be e7 0b 0d 3f 69 d7 89 be
       0.38744807 -0.32183993 0.55096287 -0.26922157
0002c0 e7 ca ad 3e 8a 83 50 3d 8b bb 39 3e 62 eb 35 3e
       0.33943865 0.050906695 0.18137948 0.17765573
0002d0 0f 4c 7a bf 82 25 a4 be dd 46 b8 be 09 9c 37 3f
       -0.97772306 -0.32059866 -0.35991564 0.71722466
0002e0 ed 94 6a bf e9 f2 93 bd 9d 6f a7 3e 45 7d 49 3f
       -0.9163349 -0.07224066 0.32702342 0.7870677
0002f0 50 9e 0d bf cc cb ba 3e cd 96 87 3e 90 3a 37 bf
       -0.5531969 0.3648361 0.2648224 -0.71573734
000300 4d 6d db bd 2e aa 97 3e 6a 9c 49 bf 69 7e 1e bf
       -0.10714207 0.29622024 -0.78754294 -0.61911637
000310 e9 fb 05 3f 98 2c 2d 3e df e6 3e 3f 68 8c 12 3f
       0.5233751 0.16911542 0.7457103 0.5724549

sequential/dense_2/MatMul f4 [7, 10]
000000 3b e1 03 3e ba 92 f9 bb 82 c4 dd bf 0f d4 24 3f
       0.12878887 -0.007616368 -1.7325594 0.64386076
000010 9c 39 fe 3e 6b 3f b6 3e 68 d7 bd bd 4d 12 87 be
       0.49653327 0.3559526 -0.09269601 -0.2638115
000020 84 11 c6 bd 55 d9 9d be af 8f 47 3f 87 be 77 3f
       -0.096713096 -0.30829874 0.7795362 0.96775097
000030 0a 5e b2 b9 d1 18 6b bd da 0e 67 bf f2 55 0d bf
       -0.0003402087 -0.057396714 -0.90257037 -0.5520927
000040 2c c2 89 bf 2c 31 d8 3e 89 cc 10 bf de 80 4b bf
       -1.0762382 0.42225015 -0.56562096 -0.7949351
000050 ba 8a 32 bf 8a 53 0d bf 50 87 70 3e 7c 5b 90 3e
       -0.6974293 -0.55205595 0.23489118 0.28194797
000060 76 23 93 bf 5f 96 28 3f 9e f4 f9 be 68 5c d6 3e
       -1.1495197 0.6585445 -0.4881944 0.41867375
000070 0f 07 c6 be fe 3b 58 3e cf c1 a9 be 82 b4 2a 3f
       -0.3867726 0.21116635 -0.33155677 0.66681683
000080 7e 1f a1 bf 8f 56 c3 3e 0e 0d 88 be 6c 5f 0c bf
       -1.2587736 0.38151976 -0.2657246 -0.548331
000090 d2 f7 70 be 5e ea 9d bf b4 00 6b 3f a3 b5 31 3f
       -0.23532036 -1.2337148 0.9179795 0.6941778
0000a0 b8 71 c8 3e eb d3 fc be 8b be f1 3e f3 6a 1e bf
       0.3914926 -0.4938043 0.47215685 -0.6188194
0000b0 ce 73 80 bf 96 bc 3b be 44 2c 06 bf e0 ca 76 3e
       -1.0035341 -0.18333659 -0.52411294 0.24100828
0000c0 85 0c 2a bf 77 55 e4 3e d5 2a 12 3f c1 6f de be
       -0.66425353 0.44596455 0.57096606 -0.43444636
0000d0 86 12 db 3e 0e a6 3c be 0f 82 7d 3c c5 a0 6d 3e
       0.4278757 -0.1842272 0.015472903 0.2320586
0000e0 e3 f6 9a 3e 57 0d 91 3e d6 28 d2 be c7 b3 93 bf
       0.30266485 0.2833049 -0.4104678 -1.1539239
0000f0 db f7 37 bf b1 96 1a 3f 56 18 6b be 14 14 3c 3d
       -0.7186257 0.60386187 -0.22958502 0.045917585
000100 46 03 ff be 6b 88 00 bf d0 e7 9d 3f 7c 80 fd 3d
       -0.49807185 -0.5020816 1.2336369 0.12378022
000110 97 a2 5a 3f 5c 0f 58 bf
       0.8540434 -0.84398437
